…
Output of train_icdar13.py

I0315 17:59:52.989725 16217 layer_factory.hpp:77] Creating layer data
I0315 17:59:52.990123 16217 net.cpp:100] Creating Layer data
I0315 17:59:52.990139 16217 net.cpp:408] data -> data
I0315 17:59:52.990188 16217 net.cpp:408] data -> label
I0315 17:59:52.991430 16224 db_lmdb.cpp:35] Opened lmdb /home/buralako/dataset-txt/ICDAR13/Challenge02/Localization/ICDAR13/lmdb/ICDAR13_trainval_lmdb
I0315 17:59:53.062340 16217 annotated_data_layer.cpp:52] output data size: 32,3,300,300
I0315 17:59:53.107219 16217 net.cpp:150] Setting up data
I0315 17:59:53.107256 16217 net.cpp:157] Top shape: 32 3 300 300 (8640000)
I0315 17:59:53.107264 16217 net.cpp:157] Top shape: 1 1 2 8 (16)
I0315 17:59:53.107269 16217 net.cpp:165] Memory required for data: 34560064
I0315 17:59:53.107278 16217 layer_factory.hpp:77] Creating layer data_data_0_split
I0315 17:59:53.107296 16217 net.cpp:100] Creating Layer data_data_0_split
I0315 17:59:53.107303 16217 net.cpp:434] data_data_0_split <- data
I0315 17:59:53.107316 16217 net.cpp:408] data_data_0_split -> data_data_0_split_0
I0315 17:59:53.107327 16217 net.cpp:408] data_data_0_split -> data_data_0_split_1
I0315 17:59:53.107347 16217 net.cpp:408] data_data_0_split -> data_data_0_split_2
I0315 17:59:53.107354 16217 net.cpp:408] data_data_0_split -> data_data_0_split_3
I0315 17:59:53.107360 16217 net.cpp:408] data_data_0_split -> data_data_0_split_4
I0315 17:59:53.107367 16217 net.cpp:408] data_data_0_split -> data_data_0_split_5
I0315 17:59:53.107372 16217 net.cpp:408] data_data_0_split -> data_data_0_split_6
I0315 17:59:53.107511 16217 net.cpp:150] Setting up data_data_0_split
I0315 17:59:53.107522 16217 net.cpp:157] Top shape: 32 3 300 300 (8640000)
I0315 17:59:53.107527 16217 net.cpp:157] Top shape: 32 3 300 300 (8640000)
I0315 17:59:53.107532 16217 net.cpp:157] Top shape: 32 3 300 300 (8640000)
I0315 17:59:53.107538 16217 net.cpp:157] Top shape: 32 3 300 300 (8640000)
I0315 17:59:53.107542 16217 net.cpp:157] Top shape: 32 3 300 300 (8640000)
I0315 17:59:53.107547 16217 net.cpp:157] Top shape: 32 3 300 300 (8640000)
I0315 17:59:53.107553 16217 net.cpp:157] Top shape: 32 3 300 300 (8640000)
I0315 17:59:53.107556 16217 net.cpp:165] Memory required for data: 276480064
I0315 17:59:53.107561 16217 layer_factory.hpp:77] Creating layer conv1_1
I0315 17:59:53.107578 16217 net.cpp:100] Creating Layer conv1_1
I0315 17:59:53.107585 16217 net.cpp:434] conv1_1 <- data_data_0_split_0
I0315 17:59:53.107592 16217 net.cpp:408] conv1_1 -> conv1_1
F0315 17:59:53.111966 16225 data_transformer.cpp:189] Check failed: height <= datum_height (300 vs. 107) 
…
